2023-11-12 19:58:40 INFO Begin Training MNIST dataset with this model: NN_2(
  (conv1): Conv2d(1, 40, kernel_size=(5, 5), stride=(1, 1))
  (conv2): Conv2d(40, 40, kernel_size=(5, 5), stride=(1, 1))
  (pool): MaxPool2d(kernel_size=(2, 2), stride=(2, 2), padding=0, dilation=1, ceil_mode=False)
  (fc1): Linear(in_features=640, out_features=100, bias=True)
  (fc2): Linear(in_features=100, out_features=10, bias=True)
)
2023-11-12 19:59:58 INFO Begin Training MNIST dataset with this model: NN_2(
  (conv1): Conv2d(3, 40, kernel_size=(5, 5), stride=(1, 1))
  (conv2): Conv2d(40, 40, kernel_size=(5, 5), stride=(1, 1))
  (pool): MaxPool2d(kernel_size=(2, 2), stride=(2, 2), padding=0, dilation=1, ceil_mode=False)
  (fc1): Linear(in_features=640, out_features=100, bias=True)
  (fc2): Linear(in_features=100, out_features=10, bias=True)
)
2023-11-12 20:09:02 INFO Begin Training MNIST dataset with this model: NN_2(
  (conv1): Conv2d(3, 40, kernel_size=(5, 5), stride=(1, 1))
  (conv2): Conv2d(40, 40, kernel_size=(5, 5), stride=(1, 1))
  (pool): MaxPool2d(kernel_size=(2, 2), stride=(2, 2), padding=0, dilation=1, ceil_mode=False)
  (fc1): Linear(in_features=5760, out_features=100, bias=True)
  (fc2): Linear(in_features=100, out_features=10, bias=True)
)
2023-11-12 20:10:39 INFO Begin Training MNIST dataset with this model: NN_2(
  (conv1): Conv2d(3, 40, kernel_size=(5, 5), stride=(1, 1))
  (conv2): Conv2d(40, 40, kernel_size=(5, 5), stride=(1, 1))
  (pool): MaxPool2d(kernel_size=(2, 2), stride=(2, 2), padding=0, dilation=1, ceil_mode=False)
  (fc1): Linear(in_features=5760, out_features=100, bias=True)
  (fc2): Linear(in_features=100, out_features=10, bias=True)
)
2023-11-12 20:11:39 INFO Begin Training MNIST dataset with this model: NN_2(
  (conv1): Conv2d(3, 40, kernel_size=(5, 5), stride=(1, 1))
  (conv2): Conv2d(40, 40, kernel_size=(5, 5), stride=(1, 1))
  (pool): MaxPool2d(kernel_size=(2, 2), stride=(2, 2), padding=0, dilation=1, ceil_mode=False)
  (fc1): Linear(in_features=1000, out_features=100, bias=True)
  (fc2): Linear(in_features=100, out_features=10, bias=True)
)
2023-11-12 20:12:37 INFO Begin Training MNIST dataset with this model: NN_2(
  (conv1): Conv2d(3, 40, kernel_size=(5, 5), stride=(1, 1))
  (conv2): Conv2d(40, 40, kernel_size=(5, 5), stride=(1, 1))
  (pool): MaxPool2d(kernel_size=(2, 2), stride=(2, 2), padding=0, dilation=1, ceil_mode=False)
  (fc1): Linear(in_features=1000, out_features=100, bias=True)
  (fc2): Linear(in_features=100, out_features=10, bias=True)
)
2023-11-13 17:41:01 INFO Begin Training CIFAR-10 dataset with this model: NN_2(
  (conv1): Conv2d(3, 40, kernel_size=(5, 5), stride=(1, 1))
  (conv2): Conv2d(40, 40, kernel_size=(5, 5), stride=(1, 1))
  (pool): MaxPool2d(kernel_size=(2, 2), stride=(2, 2), padding=0, dilation=1, ceil_mode=False)
  (fc1): Linear(in_features=1000, out_features=100, bias=True)
  (fc2): Linear(in_features=100, out_features=10, bias=True)
)
2023-11-13 17:42:43 INFO Begin Training CIFAR-10 dataset with this model: NN_2(
  (conv1): Conv2d(3, 40, kernel_size=(5, 5), stride=(1, 1))
  (conv2): Conv2d(40, 40, kernel_size=(5, 5), stride=(1, 1))
  (pool): MaxPool2d(kernel_size=(2, 2), stride=(2, 2), padding=0, dilation=1, ceil_mode=False)
  (fc1): Linear(in_features=1000, out_features=100, bias=True)
  (fc2): Linear(in_features=100, out_features=10, bias=True)
)
2023-11-13 17:44:17 INFO Begin Training CIFAR-10 dataset with this model: NN_2(
  (conv1): Conv2d(3, 40, kernel_size=(5, 5), stride=(1, 1))
  (conv2): Conv2d(40, 40, kernel_size=(5, 5), stride=(1, 1))
  (pool): MaxPool2d(kernel_size=(2, 2), stride=(2, 2), padding=0, dilation=1, ceil_mode=False)
  (fc1): Linear(in_features=1000, out_features=100, bias=True)
  (fc2): Linear(in_features=100, out_features=10, bias=True)
)
2023-11-13 17:50:27 INFO Begin Training CIFAR-10 dataset with this model: NN_2(
  (conv1): Conv2d(3, 40, kernel_size=(5, 5), stride=(1, 1))
  (conv2): Conv2d(40, 40, kernel_size=(5, 5), stride=(1, 1))
  (pool): MaxPool2d(kernel_size=(2, 2), stride=(2, 2), padding=0, dilation=1, ceil_mode=False)
  (fc1): Linear(in_features=1000, out_features=100, bias=True)
  (fc2): Linear(in_features=100, out_features=10, bias=True)
)
2023-11-13 17:51:02 INFO Training Epoch: 5, loss = 2.2875
2023-11-13 18:03:55 INFO Begin Training CIFAR-10 dataset with this model: NN_2(
  (conv1): Conv2d(3, 40, kernel_size=(5, 5), stride=(1, 1))
  (conv2): Conv2d(40, 40, kernel_size=(5, 5), stride=(1, 1))
  (pool): MaxPool2d(kernel_size=(2, 2), stride=(2, 2), padding=0, dilation=1, ceil_mode=False)
  (fc1): Linear(in_features=1000, out_features=100, bias=True)
  (fc2): Linear(in_features=100, out_features=10, bias=True)
)
2023-11-13 18:03:55 INFO Checking accuracy on training data
2023-11-13 18:03:58 INFO Got 5000 / 50000 with accuracy 10.00
2023-11-13 18:03:58 INFO Checking accuracy on training data
2023-11-13 18:04:01 INFO Got 5000 / 50000 with accuracy 10.00
2023-11-13 18:04:01 INFO Checking accuracy on training data
2023-11-13 18:04:04 INFO Got 5000 / 50000 with accuracy 10.00
…
