2023-11-12 19:58:40 INFO Begin Training MNIST dataset with this model: NN_2(
  (conv1): Conv2d(1, 40, kernel_size=(5, 5), stride=(1, 1))
  (conv2): Conv2d(40, 40, kernel_size=(5, 5), stride=(1, 1))
  (pool): MaxPool2d(kernel_size=(2, 2), stride=(2, 2), padding=0, dilation=1, ceil_mode=False)
  (fc1): Linear(in_features=640, out_features=100, bias=True)
  (fc2): Linear(in_features=100, out_features=10, bias=True)
)
2023-11-12 19:59:58 INFO Begin Training MNIST dataset with this model: NN_2(
  (conv1): Conv2d(3, 40, kernel_size=(5, 5), stride=(1, 1))
  (conv2): Conv2d(40, 40, kernel_size=(5, 5), stride=(1, 1))
  (pool): MaxPool2d(kernel_size=(2, 2), stride=(2, 2), padding=0, dilation=1, ceil_mode=False)
  (fc1): Linear(in_features=640, out_features=100, bias=True)
  (fc2): Linear(in_features=100, out_features=10, bias=True)
)
2023-11-12 20:09:02 INFO Begin Training MNIST dataset with this model: NN_2(
  (conv1): Conv2d(3, 40, kernel_size=(5, 5), stride=(1, 1))
  (conv2): Conv2d(40, 40, kernel_size=(5, 5), stride=(1, 1))
  (pool): MaxPool2d(kernel_size=(2, 2), stride=(2, 2), padding=0, dilation=1, ceil_mode=False)
  (fc1): Linear(in_features=5760, out_features=100, bias=True)
  (fc2): Linear(in_features=100, out_features=10, bias=True)
)
2023-11-12 20:10:39 INFO Begin Training MNIST dataset with this model: NN_2(
  (conv1): Conv2d(3, 40, kernel_size=(5, 5), stride=(1, 1))
  (conv2): Conv2d(40, 40, kernel_size=(5, 5), stride=(1, 1))
  (pool): MaxPool2d(kernel_size=(2, 2), stride=(2, 2), padding=0, dilation=1, ceil_mode=False)
  (fc1): Linear(in_features=5760, out_features=100, bias=True)
  (fc2): Linear(in_features=100, out_features=10, bias=True)
)
2023-11-12 20:11:39 INFO Begin Training MNIST dataset with this model: NN_2(
  (conv1): Conv2d(3, 40, kernel_size=(5, 5), stride=(1, 1))
  (conv2): Conv2d(40, 40, kernel_size=(5, 5), stride=(1, 1))
  (pool): MaxPool2d(kernel_size=(2, 2), stride=(2, 2), padding=0, dilation=1, ceil_mode=False)
  (fc1): Linear(in_features=1000, out_features=100, bias=True)
  (fc2): Linear(in_features=100, out_features=10, bias=True)
)
2023-11-12 20:12:37 INFO Begin Training MNIST dataset with this model: NN_2(
  (conv1): Conv2d(3, 40, kernel_size=(5, 5), stride=(1, 1))
  (conv2): Conv2d(40, 40, kernel_size=(5, 5), stride=(1, 1))
  (pool): MaxPool2d(kernel_size=(2, 2), stride=(2, 2), padding=0, dilation=1, ceil_mode=False)
  (fc1): Linear(in_features=1000, out_features=100, bias=True)
  (fc2): Linear(in_features=100, out_features=10, bias=True)
)
