2023-11-12 19:58:40 INFO Begin Training MNIST dataset with this model: NN_2(
  (conv1): Conv2d(1, 40, kernel_size=(5, 5), stride=(1, 1))
  (conv2): Conv2d(40, 40, kernel_size=(5, 5), stride=(1, 1))
  (pool): MaxPool2d(kernel_size=(2, 2), stride=(2, 2), padding=0, dilation=1, ceil_mode=False)
  (fc1): Linear(in_features=640, out_features=100, bias=True)
  (fc2): Linear(in_features=100, out_features=10, bias=True)
)
2023-11-12 19:59:58 INFO Begin Training MNIST dataset with this model: NN_2(
  (conv1): Conv2d(3, 40, kernel_size=(5, 5), stride=(1, 1))
  (conv2): Conv2d(40, 40, kernel_size=(5, 5), stride=(1, 1))
  (pool): MaxPool2d(kernel_size=(2, 2), stride=(2, 2), padding=0, dilation=1, ceil_mode=False)
  (fc1): Linear(in_features=640, out_features=100, bias=True)
  (fc2): Linear(in_features=100, out_features=10, bias=True)
)
2023-11-12 20:09:02 INFO Begin Training MNIST dataset with this model: NN_2(
  (conv1): Conv2d(3, 40, kernel_size=(5, 5), stride=(1, 1))
  (conv2): Conv2d(40, 40, kernel_size=(5, 5), stride=(1, 1))
  (pool): MaxPool2d(kernel_size=(2, 2), stride=(2, 2), padding=0, dilation=1, ceil_mode=False)
  (fc1): Linear(in_features=5760, out_features=100, bias=True)
  (fc2): Linear(in_features=100, out_features=10, bias=True)
)
2023-11-12 20:10:39 INFO Begin Training MNIST dataset with this model: NN_2(
  (conv1): Conv2d(3, 40, kernel_size=(5, 5), stride=(1, 1))
  (conv2): Conv2d(40, 40, kernel_size=(5, 5), stride=(1, 1))
  (pool): MaxPool2d(kernel_size=(2, 2), stride=(2, 2), padding=0, dilation=1, ceil_mode=False)
  (fc1): Linear(in_features=5760, out_features=100, bias=True)
  (fc2): Linear(in_features=100, out_features=10, bias=True)
)
2023-11-12 20:11:39 INFO Begin Training MNIST dataset with this model: NN_2(
  (conv1): Conv2d(3, 40, kernel_size=(5, 5), stride=(1, 1))
  (conv2): Conv2d(40, 40, kernel_size=(5, 5), stride=(1, 1))
  (pool): MaxPool2d(kernel_size=(2, 2), stride=(2, 2), padding=0, dilation=1, ceil_mode=False)
  (fc1): Linear(in_features=1000, out_features=100, bias=True)
  (fc2): Linear(in_features=100, out_features=10, bias=True)
)
2023-11-12 20:12:37 INFO Begin Training MNIST dataset with this model: NN_2(
  (conv1): Conv2d(3, 40, kernel_size=(5, 5), stride=(1, 1))
  (conv2): Conv2d(40, 40, kernel_size=(5, 5), stride=(1, 1))
  (pool): MaxPool2d(kernel_size=(2, 2), stride=(2, 2), padding=0, dilation=1, ceil_mode=False)
  (fc1): Linear(in_features=1000, out_features=100, bias=True)
  (fc2): Linear(in_features=100, out_features=10, bias=True)
)
2023-11-13 17:41:01 INFO Begin Training CIFAR-10 dataset with this model: NN_2(
  (conv1): Conv2d(3, 40, kernel_size=(5, 5), stride=(1, 1))
  (conv2): Conv2d(40, 40, kernel_size=(5, 5), stride=(1, 1))
  (pool): MaxPool2d(kernel_size=(2, 2), stride=(2, 2), padding=0, dilation=1, ceil_mode=False)
  (fc1): Linear(in_features=1000, out_features=100, bias=True)
  (fc2): Linear(in_features=100, out_features=10, bias=True)
)
2023-11-13 17:42:43 INFO Begin Training CIFAR-10 dataset with this model: NN_2(
  (conv1): Conv2d(3, 40, kernel_size=(5, 5), stride=(1, 1))
  (conv2): Conv2d(40, 40, kernel_size=(5, 5), stride=(1, 1))
  (pool): MaxPool2d(kernel_size=(2, 2), stride=(2, 2), padding=0, dilation=1, ceil_mode=False)
  (fc1): Linear(in_features=1000, out_features=100, bias=True)
  (fc2): Linear(in_features=100, out_features=10, bias=True)
)
2023-11-13 17:44:17 INFO Begin Training CIFAR-10 dataset with this model: NN_2(
  (conv1): Conv2d(3, 40, kernel_size=(5, 5), stride=(1, 1))
  (conv2): Conv2d(40, 40, kernel_size=(5, 5), stride=(1, 1))
  (pool): MaxPool2d(kernel_size=(2, 2), stride=(2, 2), padding=0, dilation=1, ceil_mode=False)
  (fc1): Linear(in_features=1000, out_features=100, bias=True)
  (fc2): Linear(in_features=100, out_features=10, bias=True)
)
2023-11-13 17:50:27 INFO Begin Training CIFAR-10 dataset with this model: NN_2(
  (conv1): Conv2d(3, 40, kernel_size=(5, 5), stride=(1, 1))
  (conv2): Conv2d(40, 40, kernel_size=(5, 5), stride=(1, 1))
  (pool): MaxPool2d(kernel_size=(2, 2), stride=(2, 2), padding=0, dilation=1, ceil_mode=False)
  (fc1): Linear(in_features=1000, out_features=100, bias=True)
  (fc2): Linear(in_features=100, out_features=10, bias=True)
)
2023-11-13 17:51:02 INFO Training Epoch: 5, loss = 2.2875
2023-11-13 18:03:55 INFO Begin Training CIFAR-10 dataset with this model: NN_2(
  (conv1): Conv2d(3, 40, kernel_size=(5, 5), stride=(1, 1))
  (conv2): Conv2d(40, 40, kernel_size=(5, 5), stride=(1, 1))
  (pool): MaxPool2d(kernel_size=(2, 2), stride=(2, 2), padding=0, dilation=1, ceil_mode=False)
  (fc1): Linear(in_features=1000, out_features=100, bias=True)
  (fc2): Linear(in_features=100, out_features=10, bias=True)
)
2023-11-13 18:03:55 INFO Checking accuracy on training data
2023-11-13 18:03:58 INFO Got 5000 / 50000 with accuracy 10.00
2023-11-13 18:03:58 INFO Checking accuracy on training data
2023-11-13 18:04:01 INFO Got 5000 / 50000 with accuracy 10.00
2023-11-13 18:04:01 INFO Checking accuracy on training data
2023-11-13 18:04:04 INFO Got 5000 / 50000 with accuracy 10.00
…
2023-11-13 18:10:44 INFO Got 26203 / 50000 with accuracy 52.41
2023-11-13 18:10:51 INFO Checking accuracy on training data
2023-11-13 18:10:53 INFO Got 27021 / 50000 with accuracy 54.04
2023-11-13 18:11:00 INFO Checking accuracy on training data
2023-11-13 18:11:03 INFO Got 26987 / 50000 with accuracy 53.97
2023-11-13 18:11:09 INFO Checking accuracy on training data
2023-11-13 18:11:12 INFO Got 27558 / 50000 with accuracy 55.12
2023-11-13 18:11:12 INFO Checking accuracy on test data
2023-11-13 18:11:13 INFO Got 4954 / 10000 with accuracy 49.54
2023-11-13 18:55:28 INFO Begin Training CIFAR-10 dataset with this model: NN_2(
  (conv1): Conv2d(3, 40, kernel_size=(5, 5), stride=(1, 1))
  (conv2): Conv2d(40, 40, kernel_size=(5, 5), stride=(1, 1))
  (pool): MaxPool2d(kernel_size=(2, 2), stride=(2, 2), padding=0, dilation=1, ceil_mode=False)
  (fc1): Linear(in_features=1000, out_features=100, bias=True)
  (fc2): Linear(in_features=100, out_features=10, bias=True)
)
2023-11-13 18:56:59 INFO Training Epoch: 5, loss = 2.3076
2023-11-13 18:58:40 INFO Training Epoch: 10, loss = 1.5482
2023-11-13 19:00:22 INFO Training Epoch: 15, loss = 1.4678
2023-11-13 19:02:02 INFO Training Epoch: 20, loss = 1.2371
2023-11-13 19:03:44 INFO Training Epoch: 25, loss = 1.8116
2023-11-13 19:05:26 INFO Checking accuracy on training data
2023-11-13 19:05:38 INFO Got 28834 / 50000 with accuracy 57.67
2023-11-13 19:05:38 INFO Checking accuracy on test data
2023-11-13 19:05:40 INFO Got 5253 / 10000 with accuracy 52.53
2023-11-13 19:08:29 INFO Begin Training CIFAR-10 dataset with this model: NN_2(
  (conv1): Conv2d(3, 40, kernel_size=(5, 5), stride=(1, 1))
  (conv2): Conv2d(40, 40, kernel_size=(5, 5), stride=(1, 1))
  (pool): MaxPool2d(kernel_size=(2, 2), stride=(2, 2), padding=0, dilation=1, ceil_mode=False)
  (fc1): Linear(in_features=1000, out_features=100, bias=True)
  (fc2): Linear(in_features=100, out_features=10, bias=True)
)
2023-11-13 19:08:45 INFO Checking accuracy on training data
2023-11-13 19:08:53 INFO Got 5000 / 50000 with accuracy 10.00
2023-11-13 19:10:14 INFO Begin Training CIFAR-10 dataset with this model: NN_2(
  (conv1): Conv2d(3, 40, kernel_size=(5, 5), stride=(1, 1))
  (conv2): Conv2d(40, 40, kernel_size=(5, 5), stride=(1, 1))
  (pool): MaxPool2d(kernel_size=(2, 2), stride=(2, 2), padding=0, dilation=1, ceil_mode=False)
  (fc1): Linear(in_features=1000, out_features=100, bias=True)
  (fc2): Linear(in_features=100, out_features=10, bias=True)
)
2023-11-13 19:10:31 INFO Checking accuracy on training data
2023-11-13 19:10:41 INFO Got 5000 / 50000 with accuracy 10.00
2023-11-13 19:10:58 INFO Checking accuracy on training data
2023-11-13 19:11:10 INFO Got 5000 / 50000 with accuracy 10.00
2023-11-13 19:11:30 INFO Checking accuracy on training data
2023-11-13 19:11:42 INFO Got 5000 / 50000 with accuracy 10.00
…
