2023-11-14 11:20:50 INFO Begin Training CIFAR-10 dataset with this model: NN_2(
  (conv1): Conv2d(3, 40, kernel_size=(5, 5), stride=(1, 1))
  (conv2): Conv2d(40, 40, kernel_size=(5, 5), stride=(1, 1))
  (pool): MaxPool2d(kernel_size=(2, 2), stride=(2, 2), padding=0, dilation=1, ceil_mode=False)
  (fc1): Linear(in_features=1000, out_features=100, bias=True)
  (fc2): Linear(in_features=100, out_features=10, bias=True)
)
2023-11-14 11:24:03 INFO Begin Training CIFAR-10 dataset with this model: NN_1(
  (conv1): Conv2d(3, 40, kernel_size=(5, 5), stride=(1, 1))
  (conv2): Conv2d(40, 40, kernel_size=(5, 5), stride=(1, 1))
  (pool): MaxPool2d(kernel_size=(2, 2), stride=(2, 2), padding=0, dilation=1, ceil_mode=False)
  (fc1): Linear(in_features=1000, out_features=100, bias=True)
  (fc2): Linear(in_features=100, out_features=10, bias=True)
)
2023-11-14 11:24:20 INFO Checking accuracy on training data
2023-11-14 11:24:29 INFO Got 5000 / 50000 with accuracy 10.00
2023-11-14 11:24:46 INFO Checking accuracy on training data
2023-11-14 11:24:57 INFO Got 5000 / 50000 with accuracy 10.00
2023-11-14 11:25:17 INFO Checking accuracy on training data
2023-11-14 11:25:29 INFO Got 5000 / 50000 with accuracy 10.00
2023-11-14 11:25:49 INFO Checking accuracy on training data
2023-11-14 11:26:00 INFO Got 5000 / 50000 with accuracy 10.00
2023-11-14 11:26:20 INFO Checking accuracy on training data
2023-11-14 11:26:30 INFO Begin Training CIFAR-10 dataset with this model: NN_1(
  (conv1): Conv2d(3, 40, kernel_size=(5, 5), stride=(1, 1))
  (conv2): Conv2d(40, 40, kernel_size=(5, 5), stride=(1, 1))
  (pool): MaxPool2d(kernel_size=(2, 2), stride=(2, 2), padding=0, dilation=1, ceil_mode=False)
  (fc1): Linear(in_features=1000, out_features=100, bias=True)
  (fc2): Linear(in_features=100, out_features=10, bias=True)
)
2023-11-14 11:26:48 INFO Checking accuracy on training data
2023-11-14 11:27:00 INFO Got 5000 / 50000 with accuracy 10.00
2023-11-14 11:27:20 INFO Checking accuracy on training data
2023-11-14 11:27:32 INFO Got 5000 / 50000 with accuracy 10.00
2023-11-14 11:27:54 INFO Checking accuracy on training data
2023-11-14 11:28:06 INFO Got 5000 / 50000 with accuracy 10.00
…
2023-11-14 11:49:09 INFO Training Epoch: 25, loss = 1.2339
2023-11-14 11:49:29 INFO Checking accuracy on training data
2023-11-14 11:49:40 INFO Got 26840 / 50000 with accuracy 53.68
2023-11-14 11:50:01 INFO Checking accuracy on training data
2023-11-14 11:50:12 INFO Got 27470 / 50000 with accuracy 54.94
2023-11-14 11:50:32 INFO Checking accuracy on training data
2023-11-14 11:50:43 INFO Got 27754 / 50000 with accuracy 55.51
2023-11-14 11:51:04 INFO Checking accuracy on training data
2023-11-14 11:51:15 INFO Got 27964 / 50000 with accuracy 55.93
2023-11-14 11:54:03 INFO Begin Training CIFAR-10 dataset with this model: NN_1(
  (conv1): Conv2d(3, 40, kernel_size=(5, 5), stride=(1, 1))
  (conv2): Conv2d(40, 40, kernel_size=(5, 5), stride=(1, 1))
  (pool): MaxPool2d(kernel_size=(2, 2), stride=(2, 2), padding=0, dilation=1, ceil_mode=False)
  (fc1): Linear(in_features=1000, out_features=100, bias=True)
  (fc2): Linear(in_features=100, out_features=10, bias=True)
)
2023-11-14 11:55:04 INFO Begin Training CIFAR-10 dataset with this model: NN_1(
  (conv1): Conv2d(3, 40, kernel_size=(5, 5), stride=(1, 1))
  (conv2): Conv2d(40, 40, kernel_size=(5, 5), stride=(1, 1))
  (pool): MaxPool2d(kernel_size=(2, 2), stride=(2, 2), padding=0, dilation=1, ceil_mode=False)
  (fc1): Linear(in_features=1000, out_features=100, bias=True)
  (fc2): Linear(in_features=100, out_features=10, bias=True)
)
2023-11-14 11:55:20 INFO Checking accuracy on training data
2023-11-14 11:55:30 INFO Got 5000 / 50000 with accuracy 10.00
2023-11-14 11:55:46 INFO Checking accuracy on training data
2023-11-14 11:55:57 INFO Got 5000 / 50000 with accuracy 10.00
2023-11-14 11:56:18 INFO Checking accuracy on training data
2023-11-14 11:56:29 INFO Got 5000 / 50000 with accuracy 10.00
…
