2023-11-14 12:37:51 INFO Begin Training CIFAR-10 dataset with this model: NN_2(
  (conv1): Conv2d(3, 40, kernel_size=(5, 5), stride=(1, 1))
  (conv2): Conv2d(40, 40, kernel_size=(5, 5), stride=(1, 1))
  (conv3): Conv2d(40, 40, kernel_size=(2, 2), stride=(1, 1))
  (conv4): Conv2d(40, 40, kernel_size=(2, 2), stride=(1, 1))
  (pool): MaxPool2d(kernel_size=(2, 2), stride=(2, 2), padding=0, dilation=1, ceil_mode=False)
  (fc1): Linear(in_features=640, out_features=100, bias=True)
  (fc2): Linear(in_features=100, out_features=10, bias=True)
)
2023-11-14 12:38:06 INFO Checking accuracy on training data
2023-11-14 12:38:13 INFO Got 5000 / 50000 with accuracy 10.00
2023-11-14 12:38:31 INFO Checking accuracy on training data
2023-11-14 12:38:43 INFO Got 5000 / 50000 with accuracy 10.00
2023-11-14 12:39:05 INFO Checking accuracy on training data
2023-11-14 12:39:17 INFO Got 5000 / 50000 with accuracy 10.00
…
2023-11-14 12:51:03 INFO Training Epoch: 25, loss = 1.2714
2023-11-14 12:51:25 INFO Checking accuracy on training data
2023-11-14 12:51:37 INFO Got 23169 / 50000 with accuracy 46.34
2023-11-14 12:51:59 INFO Checking accuracy on training data
2023-11-14 12:52:11 INFO Got 23495 / 50000 with accuracy 46.99
2023-11-14 12:52:33 INFO Checking accuracy on training data
2023-11-14 12:52:45 INFO Got 24251 / 50000 with accuracy 48.50
2023-11-14 12:53:07 INFO Checking accuracy on training data
2023-11-14 12:53:19 INFO Got 25004 / 50000 with accuracy 50.01
2023-11-14 17:57:10 INFO Begin Training CIFAR-10 dataset with this model: NN_2(
  (conv1): Conv2d(3, 40, kernel_size=(5, 5), stride=(1, 1))
  (conv2): Conv2d(40, 40, kernel_size=(5, 5), stride=(1, 1))
  (conv3): Conv2d(40, 40, kernel_size=(2, 2), stride=(1, 1))
  (conv4): Conv2d(40, 40, kernel_size=(2, 2), stride=(1, 1))
  (pool): MaxPool2d(kernel_size=(2, 2), stride=(2, 2), padding=0, dilation=1, ceil_mode=False)
  (fc1): Linear(in_features=640, out_features=100, bias=True)
  (fc2): Linear(in_features=100, out_features=10, bias=True)
)
2023-11-14 18:52:02 INFO Begin Training CIFAR-10 dataset with this model: NN_2(
  (conv1): Conv2d(3, 40, kernel_size=(5, 5), stride=(1, 1))
  (conv2): Conv2d(40, 40, kernel_size=(5, 5), stride=(1, 1))
  (conv3): Conv2d(40, 40, kernel_size=(2, 2), stride=(1, 1))
  (conv4): Conv2d(40, 40, kernel_size=(2, 2), stride=(1, 1))
  (pool): MaxPool2d(kernel_size=(2, 2), stride=(2, 2), padding=0, dilation=1, ceil_mode=False)
  (fc1): Linear(in_features=360, out_features=100, bias=True)
  (fc2): Linear(in_features=100, out_features=10, bias=True)
)
2023-11-14 18:52:22 INFO Checking accuracy on training data
2023-11-14 18:52:29 INFO Got 5000 / 50000 with accuracy 10.00
2023-11-14 18:52:46 INFO Checking accuracy on training data
2023-11-14 18:52:54 INFO Got 5000 / 50000 with accuracy 10.00
2023-11-14 18:53:17 INFO Checking accuracy on training data
2023-11-14 18:53:30 INFO Got 5000 / 50000 with accuracy 10.00
…
