2023-10-22 17:18:43 INFO Begin Training MNIST dataset with this model: NN(
  (fc1): Linear(in_features=784, out_features=100, bias=True)
  (fc2): Linear(in_features=100, out_features=10, bias=True)
)
2023-10-22 17:19:16 INFO Begin Training MNIST dataset with this model: NN(
  (fc1): Linear(in_features=784, out_features=100, bias=True)
  (fc2): Linear(in_features=100, out_features=10, bias=True)
)
2023-10-22 17:23:25 INFO Begin Training MNIST dataset with this model: NN(
  (fc1): Linear(in_features=784, out_features=100, bias=True)
  (fc2): Linear(in_features=100, out_features=10, bias=True)
)
2023-10-22 17:24:59 INFO Begin Training MNIST dataset with this model: NN(
  (fc1): Linear(in_features=784, out_features=100, bias=True)
  (fc2): Linear(in_features=100, out_features=10, bias=True)
)
2023-10-22 17:25:56 INFO Begin Training MNIST dataset with this model: NN(
  (fc1): Linear(in_features=784, out_features=100, bias=True)
  (fc2): Linear(in_features=100, out_features=10, bias=True)
)
